Assets/ML-Agents/models/generative/GST_TEST.onnx (onnx, 196185 bytes, 7 tensors)

39 f4 [1, 52]
0.0 0.0 0.0 0.0 0.0 0.0 0.0 0.0
0.0 0.0 0.0 0.0 0.0 0.0 0.0 0.0
0.0 0.0 0.0 0.0 0.0 0.0 0.0 0.0
0.0 0.0 0.0 0.0 0.0 0.0 0.0 0.0
0.0 0.0 0.0 0.0 0.0 0.0 0.0 0.0
0.0 0.0 0.0 0.0 0.0 0.0 0.0 0.0
0.0 0.0 0.0 0.0
00000000: 0000 0000 0000 0000 0000 0000 0000 0000
00000010: 0000 0000 0000 0000 0000 0000 0000 0000
00000020: 0000 0000 0000 0000 0000 0000 0000 0000
00000030: 0000 0000 0000 0000 0000 0000 0000 0000
00000040: 0000 0000 0000 0000 0000 0000 0000 0000
00000050: 0000 0000 0000 0000 0000 0000 0000 0000
00000060: 0000 0000 0000 0000 0000 0000 0000 0000
00000070: 0000 0000 0000 0000 0000 0000 0000 0000
00000080: 0000 0000 0000 0000 0000 0000 0000 0000
00000090: 0000 0000 0000 0000 0000 0000 0000 0000
000000a0: 0000 0000 0000 0000 0000 0000 0000 0000
000000b0: 0000 0000 0000 0000 0000 0000 0000 0000
000000c0: 0000 0000 0000 0000 0000 0000 0000 0000

distribution.mu.bias f4 [52]
0.0 0.0 0.0 0.0 0.0 0.0 0.0 0.0
0.0 0.0 0.0 0.0 0.0 0.0 0.0 0.0
0.0 0.0 0.0 0.0 0.0 0.0 0.0 0.0
0.0 0.0 0.0 0.0 0.0 0.0 0.0 0.0
0.0 0.0 0.0 0.0 0.0 0.0 0.0 0.0
0.0 0.0 0.0 0.0 0.0 0.0 0.0 0.0
0.0 0.0 0.0 0.0
00000000: 0000 0000 0000 0000 0000 0000 0000 0000
00000010: 0000 0000 0000 0000 0000 0000 0000 0000
00000020: 0000 0000 0000 0000 0000 0000 0000 0000
00000030: 0000 0000 0000 0000 0000 0000 0000 0000
00000040: 0000 0000 0000 0000 0000 0000 0000 0000
00000050: 0000 0000 0000 0000 0000 0000 0000 0000
00000060: 0000 0000 0000 0000 0000 0000 0000 0000
00000070: 0000 0000 0000 0000 0000 0000 0000 0000
00000080: 0000 0000 0000 0000 0000 0000 0000 0000
00000090: 0000 0000 0000 0000 0000 0000 0000 0000
000000a0: 0000 0000 0000 0000 0000 0000 0000 0000
000000b0: 0000 0000 0000 0000 0000 0000 0000 0000
000000c0: 0000 0000 0000 0000 0000 0000 0000 0000

distribution.mu.weight f4 [52, 128]
3.799312e-05 0.00035840008 0.014819997 0.0019457061 -0.008686158 0.0010088122 -0.0323365 0.009123273
-0.0075426633 0.024609325 -0.0076552476 -0.010075822 0.0012880192 -0.024701508 -0.00928455 0.016533967
0.0012349351 2.419515e-05 -0.015605713 0.008920613 0.004500193 -0.04034801 0.01653509 0.014757914
0.0074231657 0.014129926 -0.00059385016 -0.039950754 0.011895625 -0.012292649 -0.0032644519 -0.0034527802
0.011127659 -0.0030923877 -0.0041867485 -0.013385162 -0.013118974 0.021225823 0.005028314 0.00090063905
0.020781722 0.001740592 -0.0128488485 0.0089100115 0.011629287 0.038700316 0.022935458 -0.008004648
0.008830289 0.025556255 -0.0073587084 0.008150595 -0.027649013 -0.013589042 0.022056209 -0.01576592
-0.013097602 0.021036856 0.033939034 0.0061318143 0.0018447094 -0.0150493 -0.008532352 -0.005326101
0.01955047 -0.013031021 0.015690323 -0.03885452 0.018942786 -0.01517504 -0.021565456 0.030103711
0.015364254 -0.012010098 1.845878e-05 -0.012296312 -0.01221337 -0.0077298405 0.014731027 -0.0075243968
0.019105194 -0.016219534 0.02891902 0.03594615 -0.011363178 0.0025876057 -0.005755946 0.023325672
-0.012270269 -0.018733121 0.026430992 -0.03632731 -0.028066043 -0.0005725387 0.034782104 -0.019633329
0.0068997587 -0.009798713 -0.011500725 -0.017218707 -0.027948698 -0.02959627 -0.02149797 0.021650612
-0.029232657 -0.015775671 0.024544649 0.0077085323 0.008681704 0.039658442 -0.022932006 -0.00585732
0.0052704006 0.008075306 -0.01861118 0.0031952362 0.01654747 -0.017471466 0.008119459 -0.028254658
0.0049671275 0.0063042142 0.0030209771 0.014664829 -0.013706547 -0.01750368 0.01794669 -0.0064247632
-0.0063695796 0.00091677 -0.027900195 0.008513178 -0.014702893 0.0049697394 0.010776269 -0.02097876
0.0019369995 -0.008361842 0.006239416 0.027329717 -0.01822803 -0.031281978 0.019431507 0.023632167
-0.018604219 -0.025243226 0.026077589 0.009551368 0.020020822 0.004250351 -0.001986076 -0.006159653
-0.020279089 -0.034307774 0.025818605 -0.0040372233 -0.026415465 -0.0004804521 0.0054806145 -0.001069011
0.0050692996 0.008354939 -0.003817932 0.01707575 0.015786676 -0.038913287 0.0011268473 0.0010581168
-0.02989322 0.022288674 0.02252388 0.008165751 -0.0037241846 -0.0050287023 -0.016528895 -0.020912431
-0.022727022 -0.01635248 0.022730527 -0.00019539065 0.021262798 -0.0034499695 0.015757581 0.00820907
-0.028336037 -0.013855033 -0.0159948 -0.025978962 0.021402603 0.0042550615 0.018823706 -0.028714985
-0.00824144 -0.025511194 -0.013561753 0.009939143 -0.017724456 -0.033096828 0.025220085 0.0004411241
0.0099773705 0.01276307 0.0089038825 0.028362501 -0.016653687 -0.0011061834 -0.00558952 -0.004058763
-0.021932332 0.024494693 -0.014920788 0.00793707 -0.015172689 -0.010185849 -0.003362383 0.011623765
-0.00449982 0.020577408 0.014067294 -0.008829775 -0.0024548783 -0.018058894 0.02303793 -0.017816735
-0.0028560827 -0.02120692 -0.009348488 -0.016748855 0.023946015 0.018812427 -0.0054456242 0.016577218
-0.0059651625 0.01807553 -0.016522883 -0.012175866 -0.02756711 -0.011731864 -0.016055418 -0.014731288
-0.009030781 -0.00083186134 -0.0017142354 0.011341411 -0.015349805 0.0056094876 0.0031128055 0.009460306
-0.02101456 -0.017987764 0.021995917 0.0036688712 -0.00082692225 -0.013865824 -0.005724696 -0.030255048
00000000: cd5a 1f38 a5e7 bb39 93cf 723c 1007 ff3a
00000010: 6350 0ebc 1f3a 843a 4773 04bd c879 153c
00000020: 7228 f7bb 7f99 c93c dfd8 fabb 0f15 25bc
00000030: c1d2 a83a d15a cabc 3a1e 18bc 3e72 873c
00000040: 8cdd a13a b0f6 ca37 1baf 7fbc c327 123c
00000050: 5b76 933b f443 25bd 9974 873c 2dcb 713c
00000060: 073e f33b 3581 673c 9cac 1bba 67a3 23bd
00000070: dee5 423c 1b67 49bc 6af0 55bb 0a48 62bb
00000080: c950 363c a8a9 4abb fe30 89bb 704d 5bbc
00000090: f7f0 56bc c7e1 ad3c 8ec4 a43b dd18 6c3a
000000a0: 6e3e aa3c 9324 e43a fa83 52bc 4cfb 113c
000000b0: c488 3e3c 3984 1e3d 24e3 bb3c ed25 03bc
000000c0: ebac 103c 5a5b d13c 5221 f1bb 138a 053c
000000d0: 2f80 e2bc 93a4 5ebc 39af b43c 8827 81bc
000000e0: 5397 56bc 7c55 ac3c a803 0b3d 63ed c83b
000000f0: 2dca f13a 5791 76bc 47cb 0bbc 9386 aebb
00000100: 4f28 a03c 1080 55bc fe88 803c eb25 1fbd
00000110: e72d 9b3c bba0 78bc 0aaa b0bc 0f9c f63c
00000120: 5aba 7b3c 01c6 44bc eed7 9a37 7876 49bc
00000130: 961a 48bc 9a4a fdbb 685a 713c 378f f6bb
00000140: 7f82 9c3c d4de 84bc 95e7 ec3c 453c 133d
00000150: 9f2c 3abc d294 293b 609c bcbb 7b15 bf3c
00000160: 3d09 49bc 3476 99bc cf85 d83c f2cb 14bd
00000170: c2ea e5bc 6c16 16ba ae77 0e3d 13d6 a0bc
00000180: 5f17 e23b c88a 20bc 896d 3cbc 3f0e 8dbc
00000190: abf4 e4bc e073 f2bc 831c b0bc a05c b13c
000001a0: 5379 efbc fb3b 81bc dc11 c93c db97 fc3b
000001b0: b53d 0e3c e470 223d e7db bbbc c3ee bfbb
000001c0: 53b3 ac3b 4a4e 043c 7976 98bc 2b67 513b
000001d0: 8f8e 873c 5220 8fbc 7b07 053c 5076 e7bc
000001e0: 49c3 a23b 9593 ce3b 96fb 453b c044 703c
000001f0: 6d91 60bc e163 8fbc f004 933c d286 d2bb
00000200: e8b7 d0bb 6553 703a f38e e4bc db7a 0b3c
00000210: 67e4 70bc 32d9 a23b f38e 303c a6db abbc
00000220: ebe2 fd3a 1b00 09bc 0474 cc3b 92e2 df3c
00000230: f352 95bc 8821 00bd d32e 9f3c 3f98 c13c
00000240: e067 98bc e2ca cebc aba0 d53c 577d 1c3c
00000250: b502 a43c 8746 8b3b d328 02bb ead6 c9bb
00000260: 5520 a6bc 4f86 0cbd 8a81 d33c af4a 84bb
00000270: 3f65 d8bc 30e5 fbb9 ba96 b33b 0f1e 8cba
00000280: 5e1c a63b 27e3 083c 4536 7abb 71e2 8b3c
00000290: 0f53 813c 8a63 1fbd b9b2 933a 82b0 8a3a
000002a0: a0e2 f4bc bd96 b63c 0084 b83c a4c9 053c
000002b0: 7311 74bb d0c7 a4bb 9b67 87bc 8c50 abbc
000002c0: 052e babc a3f5 85bc 5f35 ba3c c7e1 4cb9
000002d0: 522f ae3c e218 62bb 0b16 813c 567f 063c
000002e0: fa20 e8bc 3800 63bc 8707 83bc d5d1 d4bc
000002f0: 8354 af3c 0b6e 8b3b 2c34 9a3c b03b ebbc
00000300: 1b07 07bc dafc d0bc 1d32 5ebc cad7 223c
00000310: e132 91bc 8a90 07bd 5a9a ce3c ad46 e739
00000320: 2078 233c 321c 513c 97e1 113c 7a58 e83c
00000330: 506d 88bc 5bfd 90ba 4b28 b7bb 5fff 84bb
00000340: 6fab b3bc 18a9 c83c 5276 74bc 7c0a 023c
00000350: df96 78bc 8ce2 26bc 6d5b 5cbb 9b71 3e3c
00000360: 3a73 93bb f491 a83c 827a 663c c3aa 10bc
00000370: 06e2 20bb 3ff0 93bc 0aba bc3c 67f4 91bc
00000380: 1e2d 3bbb 22ba adbc 672a 19bc e534 89bc
00000390: 6f2a c43c 851c 9a3c 3571 b2bb f2cc 873c
000003a0: 6977 c3bb 2213 943c ff5a 87bc 497d 47bc
000003b0: 6bd4 e1bc 0137 40bc a786 83bc 805b 71bc
000003c0: d7f5 13bc 4511 5aba 32b0 e0ba 53d1 393c
000003d0: c07d 7bbc cbcf b73b 3600 4c3b 66ff 1a3c
000003e0: ba26 acbc 135b 93bc c830 b43c 7271 703b
000003f0: d0c5 58ba 7b2d 63bc 3b96 bbbb 6fd9 f7bc

network_body.linear_encoder.seq_layers.0.bias f4 [128]
0.0 0.0 0.0 0.0 0.0 0.0 0.0 0.0
0.0 0.0 0.0 0.0 0.0 0.0 0.0 0.0
0.0 0.0 0.0 0.0 0.0 0.0 0.0 0.0
0.0 0.0 0.0 0.0 0.0 0.0 0.0 0.0
0.0 0.0 0.0 0.0 0.0 0.0 0.0 0.0
0.0 0.0 0.0 0.0 0.0 0.0 0.0 0.0
0.0 0.0 0.0 0.0 0.0 0.0 0.0 0.0
0.0 0.0 0.0 0.0 0.0 0.0 0.0 0.0
0.0 0.0 0.0 0.0 0.0 0.0 0.0 0.0
0.0 0.0 0.0 0.0 0.0 0.0 0.0 0.0
0.0 0.0 0.0 0.0 0.0 0.0 0.0 0.0
0.0 0.0 0.0 0.0 0.0 0.0 0.0 0.0
0.0 0.0 0.0 0.0 0.0 0.0 0.0 0.0
0.0 0.0 0.0 0.0 0.0 0.0 0.0 0.0
0.0 0.0 0.0 0.0 0.0 0.0 0.0 0.0
0.0 0.0 0.0 0.0 0.0 0.0 0.0 0.0
00000000: 0000 0000 0000 0000 0000 0000 0000 0000
00000010: 0000 0000 0000 0000 0000 0000 0000 0000
00000020: 0000 0000 0000 0000 0000 0000 0000 0000
00000030: 0000 0000 0000 0000 0000 0000 0000 0000
00000040: 0000 0000 0000 0000 0000 0000 0000 0000
00000050: 0000 0000 0000 0000 0000 0000 0000 0000
00000060: 0000 0000 0000 0000 0000 0000 0000 0000
00000070: 0000 0000 0000 0000 0000 0000 0000 0000
00000080: 0000 0000 0000 0000 0000 0000 0000 0000
00000090: 0000 0000 0000 0000 0000 0000 0000 0000
000000a0: 0000 0000 0000 0000 0000 0000 0000 0000
000000b0: 0000 0000 0000 0000 0000 0000 0000 0000
000000c0: 0000 0000 0000 0000 0000 0000 0000 0000
000000d0: 0000 0000 0000 0000 0000 0000 0000 0000
000000e0: 0000 0000 0000 0000 0000 0000 0000 0000
000000f0: 0000 0000 0000 0000 0000 0000 0000 0000
00000100: 0000 0000 0000 0000 0000 0000 0000 0000
00000110: 0000 0000 0000 0000 0000 0000 0000 0000
00000120: 0000 0000 0000 0000 0000 0000 0000 0000
00000130: 0000 0000 0000 0000 0000 0000 0000 0000
00000140: 0000 0000 0000 0000 0000 0000 0000 0000
00000150: 0000 0000 0000 0000 0000 0000 0000 0000
00000160: 0000 0000 0000 0000 0000 0000 0000 0000
00000170: 0000 0000 0000 0000 0000 0000 0000 0000
00000180: 0000 0000 0000 0000 0000 0000 0000 0000
00000190: 0000 0000 0000 0000 0000 0000 0000 0000
000001a0: 0000 0000 0000 0000 0000 0000 0000 0000
000001b0: 0000 0000 0000 0000 0000 0000 0000 0000
000001c0: 0000 0000 0000 0000 0000 0000 0000 0000
000001d0: 0000 0000 0000 0000 0000 0000 0000 0000
000001e0: 0000 0000 0000 0000 0000 0000 0000 0000
000001f0: 0000 0000 0000 0000 0000 0000 0000 0000

network_body.linear_encoder.seq_layers.0.weight f4 [128, 197]
-0.1304109 0.033588484 -0.027800092 0.065833874 0.020212367 0.050303854 -0.06389471 -0.07110192
0.08537121 -0.036398895 0.08505507 0.105538 -0.05518938 0.05070537 4.850634e-05 0.13471824
-0.1314441 0.049326424 -0.043884065 0.1313877 -0.019973159 0.055394467 0.033559646 -0.059369687
-0.040739577 0.022448063 0.07049913 0.047867578 0.0059211617 -0.0032194303 0.18690199 -0.0065283696
-0.07685065 -0.1186253 -0.007478438 0.05767468 0.034769945 -0.03221321 -0.017190505 0.031301204
-0.0044016577 0.014089564 -0.09305228 0.061089434 0.029427823 -0.008617288 -0.104761995 -0.017850699
-0.11175105 0.013243983 0.0020898632 0.03481388 0.036663193 0.03150858 0.04010045 0.042770088
0.041289084 0.0010993024 -0.028351257 0.08453642 -0.0466398 0.19646962 -0.0875031 -0.11477628
-0.020331303 -0.013532256 -0.07693542 0.03628608 0.07614717 -0.12836604 -0.096455805 -0.02452128
0.06655138 0.029798137 -0.036575515 -0.034489386 -0.02638961 0.0053782854 0.090294585 0.04084648
-0.08967258 0.0465012 0.0610957 -0.07536957 -0.04211426 0.010144887 -0.0363889 -0.14630613
-0.070747994 0.04579569 -0.070431806 -0.013213426 -0.064520165 -0.022838913 -0.06711229 0.040341444
-0.0023212787 -0.13561213 0.011953371 -0.029880706 0.14083432 0.06973013 -0.06236286 -0.14823313
-0.021671832 0.0789227 -0.038908184 -0.0006086078 0.109735295 -0.08569524 0.0095221335 0.057363927
-0.025946945 0.020695325 0.044005226 0.022017645 -0.09741587 -0.11246935 0.004223127 -0.094545685
0.018723492 -0.10584244 -0.033307604 0.015839202 0.018967967 0.016015695 -0.04453282 0.016347261
0.1785203 -0.10266823 -0.12663887 -0.105524585 -0.06726365 -0.092604436 0.0010990635 -0.07262539
0.033501208 -0.07079752 0.12146065 0.046082195 -0.083698444 0.105041824 -0.024524767 -0.03794131
0.056910977 0.10542994 -0.225899 0.10739911 -0.032698233 -0.09012463 0.026948297 -0.00283696
0.060798544 0.05329991 0.15781087 0.016733238 0.00514189 0.042159088 -0.029071655 -0.037793275
0.10820608 -0.053425882 0.02157451 -0.014068585 -0.07232518 -0.10203218 -0.034206692 -0.024967534
0.07420415 -0.01546401 -0.0531195 0.1496564 0.08071474 0.017175207 -0.034388784 -0.0861884
0.049154624 0.015618157 0.11073687 0.04721495 -0.039050918 -0.0022056864 -0.029285572 -0.13148347
0.01677351 -0.051908225 -0.042062763 0.044681937 -0.025024334 -0.010650919 -0.0012713181 0.08729546
0.004342762 -0.025975993 -0.01971583 -0.10409852 -0.101869345 0.07349764 -0.049338367 0.031095475
0.039983388 0.024998175 -0.13661781 0.16190277 -0.046819128 -0.10895444 -0.04481299 0.047831528
0.05106479 -0.02757014 -0.049206 -0.03439752 0.13116065 -0.06532697 0.07319952 -0.20149663
-0.103658006 -0.023866761 0.008546831 -0.091238484 0.04483202 0.012858653 0.054795515 -0.011475499
0.09049332 -0.026912121 -0.021791713 -0.054290403 -0.046054997 -0.010403597 0.041520398 0.054018553
-0.02218465 -0.13179746 0.063906305 -0.10812965 -0.0013193643 -0.08244121 -0.05329551 -0.09582601
0.1319229 -0.031520106 -0.042970702 0.088605456 0.09554157 0.15571058 0.012886583 0.020297535
-0.006605909 0.03427948 -0.038551264 -0.033688135 0.07583096 -0.14756186 -0.06892977 -0.043248314
00000000: 6f8a 05be 1494 093d 05bd e3bc e9d3 863d
00000010: 6894 a53c 6a0b 4e3d 3bdb 82bd e29d 91bd
00000020: 1ad7 ae3d 0217 15bd 5a31 ae3d 4f24 d83d
00000030: 420e 62bd 6fb0 4f3d 4973 4b38 94f3 093e
00000040: 4899 06be 810a 4a3d c7bf 33bd 7f8a 063e
00000050: c09e a3bc 4fe5 623d d775 093d a12d 73bd
00000060: 8bde 26bd 00e5 b73c d961 903d cb10 443d
00000070: 4e06 c23b 14fd 52bb 3c63 3f3e efeb d5bb
00000080: e063 9dbd d2f1 f2bd af0d f5bb 493c 6c3d
00000090: ee6a 0e3d 00f2 03bd 1ad3 8cbc b135 003d
000000a0: c83b 90bb ead7 663c 3292 bebd ea38 7a3d
000000b0: 9e12 f13c 872f 0dbc 758d d6bd a13b 92bc
000000c0: bcdd e4bd 4afd 583c 16f6 083b 0099 0e3d
000000d0: 252c 163d 240f 013d 5f40 243d b02f 2f3d
000000e0: be1e 293d 7816 903a e540 e8bc 6e21 ad3d
000000f0: 6009 3fbd 552f 493e d334 b3bd d40f ebbd
00000100: d58d a6bc 65b6 5dbc 5190 9dbd b6a0 143d
00000110: 0cf3 9b3d 6372 03be 9f8a c5bd dae0 c8bc
00000120: 174c 883d 391b f43c 35d0 15bd be44 0dbd
00000130: 062f d8bc 543c b03b 5eec b83d a34e 273d
00000140: 42a6 b7bd 0b78 3e3d 7c3f 7a3d 5c5b 9abd
00000150: 0180 2cbd bd36 263c 870c 15bd 46d1 15be
00000160: 53e4 90bd 4394 3b3d 8d3e 90bd 207d 58bc
00000170: 2623 84bd ac18 bbbc 2b72 89bd 123d 253d
00000180: 9820 18bb e8dd 0abe 12d8 433c 62c8 f4bc
00000190: df36 103e acce 8e3d 3370 7fbd 6dca 17be
000001a0: 2089 b1bc 39a2 a13d 305e 1fbd fa8a 1fba
000001b0: e6bc e03d fc80 afbd b902 1c3c 70f6 6a3d
000001c0: b08e d4bc 3e89 a93c d33e 343d 595e b43c
000001d0: f981 c7bd 5556 e6bd 2862 8a3b 2ba1 c1bd
000001e0: 0262 993c ecc3 d8bd 8e6d 08bd 37c1 813c
000001f0: b662 9b3c 5933 833c 0c68 36bd b1ea 853c
00000200: 07ce 363e b943 d2bd 9fad 01be 461d d8bd
00000210: 86c1 89bd 65a7 bdbd 740e 903a 9fbc 94bd
00000220: 9038 093d 4afe 90bd 5cc0 f83d afc0 3c3d
00000230: 176a abbd 2b20 d73d 2ae8 c8bc 5968 1bbd
00000240: 7c1b 693d a7eb d73d 1152 67be 11f4 db3d
00000250: 95ee 05bd 4393 b8bd adc2 dc3c 4aec 39bb
00000260: e507 793d 0251 5a3d 2c99 213e 2514 893c
00000270: 4d7d a83b 02af 2c3d ae27 eebc 1fcd 1abd
00000280: 269b dd3d 19d5 5abd 07bd b03c ec7f 66bc
00000290: 391f 94bd 3ff6 d0bd 511c 0cbd b788 ccbc
000002a0: 58f8 973d c25c 7dbc d593 59bd 873f 193e
000002b0: c54d a53d 05b3 8c3c 41db 0cbd 8b83 b0bd
000002c0: 5c56 493d 4ce3 7f3c 03ca e23d 7764 413d
000002d0: dbf3 1fbd 478d 10bb 4ce8 efbc 9aa3 06be
000002e0: 9a68 893c b89d 54bd 014a 2cbd 6804 373d
000002f0: d5ff ccbc 3181 2ebc 5ba2 a6ba f6c7 b23d
00000300: ba4d 8e3b 9bcb d4bc 1883 a1bc 9b31 d5bd
00000310: e0a0 d0bd ee85 963d 0717 4abd f0bb fe3c
00000320: 9fc5 233d f9c8 cc3c 8ae5 0bbe d7c9 253e
00000330: 6ac5 3fbd 8123 dfbd d38d 37bd feea 433d
00000340: 5029 513d c6da e1bc 3b8c 49bd 6ae4 0cbd
00000350: fa4e 063e 25ca 85bd a1e9 953d 2255 4ebe
00000360: a64a d4bd 3a84 c3bc 0208 0c3c 3edb babd
00000370: c8a1 373d 1aad 523c 4371 603d bb03 3cbc
00000380: 9054 b93d cf76 dcbc 8984 b2bc 9d5f 5ebd
00000390: 2aa4 3cbd d973 2abc 4b11 2a3d 8f42 5d3d
000003a0: 95bc b5bc eaf5 06be 4fe1 823d 1473 ddbd
000003b0: 85ee acba f0d6 a8bd 654c 5abd 6d40 c4bd
000003c0: cc16 073e 3a1b 01bd 0c02 30bd c776 b53d
000003d0: 4cab c33d 9872 1f3e 3f22 533c 0447 a63c
000003e0: 6276 d8bb a468 0c3d eee7 1dbd 92fc 09bd
000003f0: 434d 9b3d 751a 17be 0d2b 8dbd 2525 31bd

network_body.linear_encoder.seq_layers.2.bias f4 [128]
0.0 0.0 0.0 0.0 0.0 0.0 0.0 0.0
0.0 0.0 0.0 0.0 0.0 0.0 0.0 0.0
0.0 0.0 0.0 0.0 0.0 0.0 0.0 0.0
0.0 0.0 0.0 0.0 0.0 0.0 0.0 0.0
0.0 0.0 0.0 0.0 0.0 0.0 0.0 0.0
0.0 0.0 0.0 0.0 0.0 0.0 0.0 0.0
0.0 0.0 0.0 0.0 0.0 0.0 0.0 0.0
0.0 0.0 0.0 0.0 0.0 0.0 0.0 0.0
0.0 0.0 0.0 0.0 0.0 0.0 0.0 0.0
0.0 0.0 0.0 0.0 0.0 0.0 0.0 0.0
0.0 0.0 0.0 0.0 0.0 0.0 0.0 0.0
0.0 0.0 0.0 0.0 0.0 0.0 0.0 0.0
0.0 0.0 0.0 0.0 0.0 0.0 0.0 0.0
0.0 0.0 0.0 0.0 0.0 0.0 0.0 0.0
0.0 0.0 0.0 0.0 0.0 0.0 0.0 0.0
0.0 0.0 0.0 0.0 0.0 0.0 0.0 0.0
00000000: 0000 0000 0000 0000 0000 0000 0000 0000
00000010: 0000 0000 0000 0000 0000 0000 0000 0000
00000020: 0000 0000 0000 0000 0000 0000 0000 0000
00000030: 0000 0000 0000 0000 0000 0000 0000 0000
00000040: 0000 0000 0000 0000 0000 0000 0000 0000
00000050: 0000 0000 0000 0000 0000 0000 0000 0000
00000060: 0000 0000 0000 0000 0000 0000 0000 0000
00000070: 0000 0000 0000 0000 0000 0000 0000 0000
00000080: 0000 0000 0000 0000 0000 0000 0000 0000
00000090: 0000 0000 0000 0000 0000 0000 0000 0000
000000a0: 0000 0000 0000 0000 0000 0000 0000 0000
000000b0: 0000 0000 0000 0000 0000 0000 0000 0000
000000c0: 0000 0000 0000 0000 0000 0000 0000 0000
000000d0: 0000 0000 0000 0000 0000 0000 0000 0000
000000e0: 0000 0000 0000 0000 0000 0000 0000 0000
000000f0: 0000 0000 0000 0000 0000 0000 0000 0000
00000100: 0000 0000 0000 0000 0000 0000 0000 0000
00000110: 0000 0000 0000 0000 0000 0000 0000 0000
00000120: 0000 0000 0000 0000 0000 0000 0000 0000
00000130: 0000 0000 0000 0000 0000 0000 0000 0000
00000140: 0000 0000 0000 0000 0000 0000 0000 0000
00000150: 0000 0000 0000 0000 0000 0000 0000 0000
00000160: 0000 0000 0000 0000 0000 0000 0000 0000
00000170: 0000 0000 0000 0000 0000 0000 0000 0000
00000180: 0000 0000 0000 0000 0000 0000 0000 0000
00000190: 0000 0000 0000 0000 0000 0000 0000 0000
000001a0: 0000 0000 0000 0000 0000 0000 0000 0000
000001b0: 0000 0000 0000 0000 0000 0000 0000 0000
000001c0: 0000 0000 0000 0000 0000 0000 0000 0000
000001d0: 0000 0000 0000 0000 0000 0000 0000 0000
000001e0: 0000 0000 0000 0000 0000 0000 0000 0000
000001f0: 0000 0000 0000 0000 0000 0000 0000 0000

network_body.linear_encoder.seq_layers.2.weight f4 [128, 128]
0.09253372 0.04737669 -0.03529003 -0.043659855 -0.09879582 0.07296663 -0.052896596 0.0143049
-0.079749994 0.025135025 -0.046232812 0.0826216 0.09000375 -0.009270664 0.03849133 0.027843477
-0.11012461 0.061669774 0.21123956 0.14244226 0.047137592 -0.22107373 0.093839556 0.15180598
0.12656994 0.14596225 -0.07591588 -0.07495113 -0.13575867 -0.10971576 0.0022413798 -0.095023945
-0.037702605 0.113241784 0.048874103 0.041690525 -0.09146024 0.020610906 -0.17627034 0.23933859
0.08178954 -0.12585135 -0.10813261 0.018106624 -0.0073871575 -0.031483088 0.010467945 0.035741217
0.03831876 -0.0135790305 -0.051915005 -0.009498512 -0.13900805 -0.10980152 -0.051020082 -0.036711983
0.10228175 0.15991229 -0.03226254 -0.019196494 -0.14136459 -0.04096217 0.035470657 0.02220058
0.07710461 0.039650343 -0.08741432 -0.03371234 0.0066604656 0.14938094 0.058441974 0.021224517
-0.17274806 0.04810537 -0.079101846 0.15028292 -0.107391566 0.05419997 -0.07949853 -0.11383655
-0.08791424 0.047595497 -0.010833764 0.002131571 -0.022868317 0.08548464 -0.0773671 -0.057020187
-0.028870774 -0.012867538 -0.016630232 0.033607207 0.01760005 -0.07428452 0.04397301 -0.063791364
0.01834177 0.086233646 0.058405828 -0.005522652 -0.13248293 0.044577785 -0.077376105 0.11805585
0.058075037 0.15311344 0.049531966 -0.08435544 0.16384602 -0.074715786 -0.029734327 -0.00681652
-0.03162065 -0.06865251 -0.041002404 0.03793054 -0.04957679 0.09944863 0.044949744 -0.025743352
0.017333852 0.005641671 0.050027333 -0.0066912607 -0.13387917 -0.10983926 0.043486264 -0.012701224
0.0680312 0.00071535044 0.03634902 0.050537743 -0.073901966 -0.012425047 -0.015971081 -0.031588584
0.105679534 -0.00096386555 0.0021949 0.07885254 0.0264194 -0.07820516 -0.01568054 0.20392428
0.05725819 -0.03602424 -0.020515023 -0.15244484 -0.11470209 0.056566495 0.17376983 -0.14389147
0.10486446 -0.07680792 0.11093821 -0.048297074 0.0054070004 -0.23902076 0.028351212 -0.0022346321
0.048045214 0.02201759 -0.050631147 0.03261287 -0.05638743 -0.061495174 0.25982338 0.055357575
0.027901458 -0.16455196 0.1606044 0.06192442 -0.077538244 0.023596337 0.06341787 0.15978129
-0.08756923 0.0042665745 -0.028946541 -0.082752146 -0.047604922 -0.18194532 -0.022888523 -0.14707099
-0.079091966 0.25355738 0.21681856 -0.09577383 -0.067504495 -0.039634414 0.2245198 0.059976276
0.077035315 0.068483815 0.055701386 -0.018371945 -0.09325871 -0.07479005 -0.042744372 -0.07504126
0.04779667 0.016508613 -0.046313457 -0.097402565 -0.17987807 -0.04081208 -0.022657221 0.09539025
0.07083838 -0.056169767 0.0511133 0.008707538 -0.1386714 0.047299467 0.06703781 0.06383478
-0.04288785 -0.17218532 0.0100296065 -0.14809975 -0.09555916 0.0146996435 -0.043080904 -0.077961996
0.094364285 -0.0025513372 0.0073583205 0.077476196 0.20368472 -0.03512976 -0.110886246 -0.071728386
0.017226107 0.22280769 0.032092206 -0.12341493 0.019780045 -0.12316685 -0.10701474 0.0632546
0.040355124 0.09530992 0.015025443 0.08160864 -0.023524312 -0.1806028 0.2225583 -0.024289578
-0.107388146 0.082418755 -0.01656594 -0.02607679 -0.0068454915 -0.012111388 0.03391027 0.062008142
00000000: 5282 bd3d 0f0e 423d 478c 10bd add4 32bd
00000010: 7655 cabd 876f 953d 1aaa 58bd 195f 6a3c
00000020: f753 a3bd f8e7 cd3c 9e5e 3dbd 8335 a93d
00000030: e353 b83d fce3 17bc 16a9 1d3d 0118 e43c
00000040: 0389 e1bd 7299 7c3d 2f4f 583e 62dc 113e
00000050: 5913 413d 2761 62be f42e c03d 0773 1b3e
00000060: 8d9b 013e 2177 153e c979 9bbd fa7f 99bd
00000070: 5204 0bbe a8b2 e0bd 1de4 123b ea9b c2bd
00000080: 0c6e 1abd 4feb e73d 3630 483d afc3 2a3d
00000090: 824f bbbd 34d8 a83c 3680 34be 2d15 753e
000000a0: 4681 a73d 2ddf 00be a174 ddbd 5854 943c
000000b0: f80f f2bb 69f4 00bd be81 2b3c 6265 123d
000000c0: 22f4 1c3d 957a 5ebc d4a4 54bd a69f 1bbc
000000d0: 2058 0ebe 9fdf e0bd 6ffa 50bd 4e5f 16bd
000000e0: 1879 d13d 0cc0 233e ba25 04bd f741 9dbc
000000f0: e1c1 10be f3c7 27bd ae49 113d fedd b53c
00000100: 06e9 9d3d 6668 223d 4706 b3bd f315 0abd
00000110: 0940 da3b 51f7 183e da60 6f3d 0adf ad3c
00000120: dee4 30be 230a 453d 2600 a2bd c4e3 193e
00000130: 1cf0 dbbd ca00 5e3d 20d0 a2bd 2323 e9bd
00000140: 620c b4bd 7ff3 423d 1a80 31bc d4b1 0b3b
00000150: 5656 bbbc 9212 af3d a472 9ebd 008e 69bd
00000160: 6782 ecbc 5ed2 52bc 203c 88bc b6a7 093d
00000170: fb2d 903c 7b22 98bd 0b1d 343d 0ca5 82bd
00000180: 7b41 963c 449b b03d f33a 6f3d 5df7 b4bb
00000190: 9ba9 07be 3297 363d 5d77 9ebd 44c7 f13d
000001a0: 17e0 6d3d c5c9 1c3e 08e2 4a3d 8cc2 acbd
000001b0: 40c7 273e 9704 99bd 6795 f3bc 1d5d dfbb
000001c0: a884 01bd b099 8cbd 23f2 27bd 0e5d 1b3d
000001d0: 0811 4bbd b9ab cb3d 391d 383d b9e3 d2bc
000001e0: b9ff 8d3c c4dd b83b 76e9 4c3d 5d42 dbbb
000001f0: 9f17 09be 68f3 e0bd a71e 323d cb18 50bc
00000200: f153 8b3d 5b86 3b3a b6e2 143d aa00 4f3d
00000210: ea59 97bd 6d92 4bbc c9d5 82bc 0863 01bd
00000220: 836e d83d ecab 7cba 50d8 0f3b 717d a13d
00000230: 7f6d d83c 072a a0bd 7a74 80bc 87d1 503e
00000240: 9087 6a3d 278e 13bd 1f0f a8bc 801a 1cbe
00000250: eee8 eabd 45b2 673d b8f0 313e 4958 13be
00000260: 2ec3 d63d 794d 9dbd 9233 e33d 27d3 45bd
00000270: 352d b13b dcc1 74be cd40 e83c e872 12bb
00000280: 0fcb 443d 3c5e b43c 9b62 4fbd 1395 053d
00000290: 81f6 66bd 5de2 7bbd 9207 853e a0be 623d
000002a0: 9991 e43c 4f80 28be 7b75 243e 76a4 7d3d
000002b0: 5fcc 9ebd 1b4d c13c 3ae1 813d b59d 233e
000002c0: 7f57 b3bd 9fce 8b3b 4c21 edbc f579 a9bd
000002d0: 61fd 42bd e04f 3abe b680 bbbc c799 16be
000002e0: f8fa a1bd 46d2 813e af05 5e3e 1225 c4bd
000002f0: cc3f 8abd b257 22bd 85e8 653e afa9 753d
00000300: b1c4 9d3d 3e41 8c3d 2327 643d c380 96bc
00000310: 6cfe bebd 872b 99bd b914 2fbd 3baf 99bd
00000320: 71c6 433d 123d 873c 2eb3 3dbd ff7a c7bd
00000330: f531 38be 912a 27bd a39b b9bc f75b c33d
00000340: b613 913d 4512 66bd 2e5c 513d 10aa 0e3c
00000350: e0ff 0dbe 16bd 413d 1f4b 893d cfbb 823d
00000360: 2cab 2fbd 5951 30be 3853 243c 76a7 17be
00000370: 85b4 c3bd c6d6 703c 9a75 30bd 8aaa 9fbd
00000380: 1042 c13d 5634 27bb 111e f13b d7ab 9e3d
00000390: ba92 503e 39e4 0fbd 5418 e3bd 55e6 92bd
000003a0: c41d 8d3c b327 643e 1e73 033d f8c0 fcbd
000003b0: c309 a23c e73e fcbd 8b2a dbbd a18b 813d
000003c0: 6a4b 253d d931 c33d 472d 763c 6e22 a73d
000003d0: 0fb6 c0bc f1ef 38be 53e6 633e f0fa c6bc
000003e0: 51ee dbbd 2acb a83d 4bb5 87bc fe9e d5bc
000003f0: 2550 e0bb d86e 46bc 7fe5 0a3d 40fc 7d3d
